scTail/model/human_pretrained_model_test.pth (torch, 726494 bytes, 26 tensors)

conv.0.weight f4 [128, 4, 8]
0.10326728 0.10078737 -0.04543181 0.115952 0.2019482 0.123866275 -0.0772789 -0.08655527
-0.14613102 -0.10848146 0.119933315 -0.08594985 -0.033459432 0.04376537 -0.10702107 -0.04928323
-0.15142354 -0.035403673 0.005682899 0.088548936 -0.041056745 -0.010152857 -0.13869797 0.030173998
0.13176744 0.086188585 -0.19650608 -0.035452783 -0.055746514 -0.1888763 -0.21956119 0.0998804
-0.124169394 -0.049825754 -0.1281131 -0.17274234 0.059628844 -0.06237609 0.020460045 -0.009949484
0.093705915 0.10940099 0.06515044 0.079628654 -0.1792368 0.14535116 -0.14113323 -0.14744683
0.16696012 0.08355522 0.016869267 0.033307094 0.054448035 -0.12577221 -0.13033421 -0.14037412
-0.20024888 -0.13433948 0.17362262 0.19715975 0.05154517 -0.07751274 0.16269977 -0.07517883
-0.054947525 0.03608025 0.047654748 -0.080751225 -0.11113857 0.07127695 0.013290605 -0.083111316
-0.0288585 0.12945679 -0.14473113 -0.1842181 0.14186546 -0.20462377 -0.07170081 -0.16642652
0.054143205 0.050183475 -0.21763861 0.11000457 0.030233774 -0.14399537 0.0978265 -0.054209467
0.14711522 -0.070583425 -0.12085814 0.0045227567 0.02030966 0.21104963 -0.017037775 0.0071189753
-0.020224987 -0.12233299 0.026984084 0.039196823 -0.0025341422 0.039680395 -0.12312174 -0.004536423
-0.07809799 -0.17528836 0.12106821 0.032997243 -0.091709115 -0.023574824 -0.015141293 0.10833714
-0.08515273 -0.13367052 0.09568574 -0.11287038 0.1353464 0.09201292 -0.094238155 -0.043712527
0.11789337 -0.008611277 0.030388644 -0.16046523 -0.06417973 0.09857955 -0.06343906 0.07607387
0.032622974 -0.18236993 0.17905077 -0.1480646 0.015201515 0.10206096 -0.031846926 -0.04029278
0.10963201 -0.17364293 -0.0677873 0.096729666 0.18049137 -0.00039232793 0.033578288 -0.11861355
0.05126347 -0.055706836 0.19251344 0.07161804 -0.09848409 -0.086273834 -0.22973302 0.10594991
0.09177207 -0.08594597 -0.06646624 -0.16228613 0.1511071 -0.1037266 -0.09245404 -0.16366181
0.15889505 0.05178824 0.14315496 -0.11093143 -0.17370659 0.14037882 0.016811335 -0.13023917
0.054521788 -0.07040696 0.16261287 -0.11826408 0.020033408 -0.12649122 -0.060540408 -0.08319982
0.18698278 -0.037223678 -0.11871744 0.057948582 0.015445857 -0.15584157 -0.04885002 -0.15211803
-0.09447051 0.039709028 -0.18219745 -0.049679775 -0.1206215 0.0064861355 -0.116703145 0.22969437
0.16699791 0.11557658 0.06342575 -0.04274215 -0.11335026 -0.11521928 0.093288876 -0.14606084
0.043811817 -0.052918527 -0.048255876 0.0010859026 0.08354955 0.08107243 -0.012652693 0.16713296
-0.09890551 0.10775156 0.20091562 0.09579577 -0.00023516713 -0.20991498 -0.020405855 -0.18571983
-0.07032479 0.07324569 -0.028405007 -0.12261619 -0.1341654 0.16127491 -0.037074685 -0.017257685
0.08796233 -0.14596155 0.18968561 -0.038931005 0.09643866 -0.21850145 0.02674212 0.053794518
0.0044757207 -0.07008268 -0.19102718 -0.052276768 -0.091831125 0.056237455 -0.120858036 0.11379466
-0.11448041 -0.19201969 0.08135182 -0.061108824 -0.101392254 -0.07077019 -0.15677206 0.1320037
0.023145914 -0.124712095 0.15656362 -0.009217119 0.113018 0.11724641 -0.11058386 0.1384688
00000000: cc7d d33d 9c69 ce3d b516 3abd 3e78 ed3d
00000010: 82cb 4e3e 9aad fd3d 6644 9ebd e443 b1bd
00000020: 5fa3 15be 872b debd 999f f53d 7a06 b0bd
00000030: c20c 09bd 5143 333d dd2d dbbd 36dd 49bd
00000040: c60e 1bbe 7103 11bd 9d37 ba3b 2559 b53d
00000050: 1e2b 28bd 2b58 26bc d706 0ebe 762f f73c
00000060: 0bee 063e a483 b03d e438 49be f036 11bd
00000070: 7556 64bd ca68 41be a6d4 60be 188e cc3d
00000080: 864c febd 1716 4cbd 1530 03be 5ee3 30be
00000090: 603d 743d 127e 7fbd d39b a73c 2903 23bc
000000a0: e3e8 bf3d a00d e03d 986d 853d 5914 a33d
000000b0: da89 37be efd6 143e 3b85 10be 4dfc 16be
000000c0: 98f7 2a3e 001f ab3d 6b31 8a3c 056d 083d
000000d0: e704 5f3d 6eca 00be 5576 05be 3cbe 0fbe
000000e0: 0b0e 4dbe 4a90 09be 21ca 313e 3fe4 493e
000000f0: 0721 533d 00bf 9ebd c59a 263e 5cf7 99bd
00000100: a810 61bd e2c8 133d a031 433d e660 a5bd
00000110: 9e9c e3bd a6f9 913d d6c0 593c 4436 aabd
00000120: a968 ecbc 5290 043e 6634 14be aba3 3cbe
00000130: 2e45 113e e588 51be e0d7 92bd b76b 2abe
00000140: 44c5 5d3d 308d 4d3d a8dc 5ebe 134a e13d
00000150: d2ac f73c 8673 13be 4359 c83d bf0a 5ebd
00000160: 5fa5 163e 0b8e 90bd 7984 f7bd a233 943b
00000170: 7260 a63c 651d 583e ce92 8bbc 4b46 e93b
00000180: dfae a5bc b889 fabd ba0d dd3c d98c 203d
00000190: da13 26bb e987 223d 4027 fcbd 46a6 94bb
000001a0: d7f1 9fbd cb7e 33be 9cf2 f73d 1e28 073d
000001b0: fdd1 bbbd fd1f c1bc 3013 78bc dddf dd3d
000001c0: 8e64 aebd ede0 08be e3f6 c33d 9628 e7bd
000001d0: 3f98 0a3e 4571 bc3d efff c0bd e80b 33bd
000001e0: 1472 f13d 5016 0dbc 9bf1 f83c ff50 24be
000001f0: aa70 83bd 13e4 c93d 56ec 81bd 9ecc 9b3d
00000200: ab9f 053d 2fbf 3abe 1659 373e 3f9e 17be
00000210: c60f 793c 5605 d13d ec71 02bd 0b0a 25bd
00000220: bf86 e03d 74cf 31be 11d4 8abd 341a c63d
00000230: bbd2 383e 5db1 cdb9 6389 093d a9eb f2bd
00000240: a5f9 513d da2c 64bd 3e22 453e 7bac 923d
00000250: 07b2 c9bd 56b0 b0bd 223f 6bbe 44fc d83d
00000260: fff2 bb3d 7104 b0bd 741f 88bd 562e 26be
00000270: d2bb 1a3e 9d6e d4bd 8b58 bdbd f696 27be
00000280: 62b5 223e e81f 543d 3797 123e 0430 e3bd
00000290: 24e0 31be 77bf 0f3e edb7 893c 6b5d 05be
000002a0: 3d52 5f3d 8631 90bd fd83 263e 7034 f2bd
000002b0: 1a1d a43c ea86 01be 38f9 77bd ab64 aabd
000002c0: 6a78 3f3e db77 18bd 2122 f3bd 7e5b 6d3d
000002d0: 9f10 7d3c ef94 1fbe f516 48bd d4c4 1bbe
000002e0: c179 c1bd efa5 223d f891 3abe 057d 4bbd
000002f0: 6808 f7bd a689 d43b 0f02 efbd 0035 6b3e
00000300: 8001 2b3e 6ab3 ec3d 5ce5 813d 6512 2fbd
00000310: 2e24 e8bd 16f8 ebbd 3d0e bf3d f990 15be
00000320: 0574 333d 19c1 58bd f4a7 45bd d854 8e3a
00000330: 071c ab3d 4d09 a63d 3e4d 4fbc e724 2b3e
00000340: f98e cabd daac dc3d d3bc 4d3e 9330 c43d
00000350: 3297 76b9 f4f3 56be 2e2a a7bc 572d 3ebe
00000360: 7206 90bd d601 963d 9eb1 e8bc 321e fbbd
00000370: a862 09be 4025 253e a0db 17bd fd5f 8dbc
00000380: 9825 b43d f276 15be f23c 423e 1e76 1fbd
00000390: a281 c53d d8be 5fbe 4a12 db3c a457 5c3d
000003a0: 11a9 923b 8287 8fbd a19c 43be 2a20 56bd
000003b0: f511 bcbd 3f59 663d 6b84 f7bd 2d0d e93d
000003c0: b574 eabd cfa0 44be c89b a63d 3f4d 7abd
000003d0: bea6 cfbd f6ef 90bd db88 20be fa2b 073e
000003e0: 809c bd3c 0e69 ffbd 3752 203e 6603 17bc
000003f0: fb75 e73d e31e f03d ca79 e2bd c4ca 0d3e

conv.0.bias f4 [128]
-0.015833173 -0.05385433 0.10947427 0.12000016 0.004412122 -0.023637358 -0.1961094 0.0660792
-0.078205004 -0.053620316 -0.10220825 -0.123018295 0.033586774 -0.08269893 -0.13070361 -0.15831429
0.0039540976 0.10913093 -0.036057882 -0.16198586 -0.18056062 -0.031127725 -0.051201817 -0.14748529
-0.08164589 -0.15089019 0.009034751 -0.079898655 -0.07149203 -0.025655055 -0.016293805 -0.08213869
0.03972439 -0.16477887 -0.0785494 0.0005463104 0.12064226 0.012029183 0.062045593 0.12575306
-0.15391597 0.024660902 0.16603519 -0.14596124 0.020258797 -0.08950728 0.005694483 0.052938648
-0.017667867 0.11107835 -0.15598175 0.015786288 0.017134765 -0.03540091 -0.072666384 0.056533962
-0.04220207 -0.1362551 0.051962417 -0.05844648 -0.0034240677 -0.1576112 0.10684678 0.14998874
0.10353314 -0.0694662 -0.028132938 -0.165201 0.0535428 0.09069249 -0.15163851 -0.038017478
-0.040634915 -0.114265665 0.10488136 0.004635602 0.10983828 -0.02098876 -0.08290365 -0.07877122
0.0044139726 -0.07067502 -0.14430071 0.13293165 -0.09626628 -0.1699041 -0.06539959 -0.09290883
-0.040559214 -0.06368165 -0.12800752 0.035809778 -0.0028995485 0.08922536 -0.078169204 -0.041081402
0.034069583 0.011741433 -0.0650742 -0.107512794 0.017509596 0.12932521 -0.1755096 0.028913248
0.048858877 0.10775491 0.07662738 -0.0024219924 -0.11149945 0.064595945 -0.05128047 -0.054208133
-0.0003669358 -0.050274126 -0.0683701 -0.0061443825 -0.057791777 0.0074417163 -0.18885617 -0.18197605
0.092371814 0.07954104 -0.0075375927 0.074267834 0.04980292 0.069202766 -0.06540872 -0.21341123
00000000: 92b4 81bc 5c96 5cbd 0c34 e03d a5c2 f53d
00000010: 9093 903b 22a3 c1bc e7d0 48be 8854 873d
00000020: f229 a0bd faa0 5bbd 8f52 d1bd 04f1 fbbd
00000030: 4992 093d 0e5e a9bd 2bd7 05be 241d 22be
00000040: 6091 813b 0980 df3d 6eb1 13bd 9fdf 25be
00000050: e2e4 38be 92ff febc ffb8 51bd 6206 17be
00000060: f635 a7bd f582 1abe 7e06 143c e8a1 a3bd
00000070: 6a6a 92bd 8d2a d2bc 967a 85bc 5438 a8bd
00000080: 0bb6 223d cbbb 28be 82de a0bd 4536 0f3a
00000090: 4a13 f73d 0d16 453c 8523 7e3d 69c5 003e
000000a0: 269c 1dbe a905 ca3c 2105 2a3e dd76 15be
000000b0: c7f5 a53c 984f b7bd c998 ba3b 32d6 583d
000000c0: 34bc 90bc 0c7d e33d aeb9 1fbe 3f52 813c
000000d0: 355e 8c3c 8b00 11bd 1dd2 94bd 2890 673d
000000e0: 14dc 2cbd 7586 0bbe 8bd6 543d 9465 6fbd
000000f0: 5366 60bb d564 21be 7cd2 da3d a696 193e
00000100: 2f09 d43d 4c44 8ebd 0c77 e6bc 732a 29be
00000110: b24f 5b3d fcbc b93d 2047 1bbe 37b8 1bbd
00000120: cc70 26bd 1e04 eabd 0acc d63d 3fe6 973b
00000130: e4f2 e03d 9ff0 abbc 64c9 a9bd ce52 a1bd
00000140: 16a3 903b 11be 90bd 91c3 13be 3c1f 083e
00000150: 4127 c5bd 57fb 2dbe 38f0 85bd fc46 bebd
00000160: 6b21 26bd 866b 82bd 6714 03be 46ad 123d
00000170: 5a06 3ebb c9bb b63d 2d17 a0bd f944 28bd
00000180: 8c8c 0b3d 245f 403c 9f45 85bd ab2f dcbd
00000190: 4970 8f3c d46d 043e cab8 33be 7adb ec3c
000001a0: 3f20 483d 9bae dc3d d1ee 9c3d 4aba 1ebb
000001b0: d359 e4bd e14a 843d 780b 52bd 5909 5ebd
000001c0: 4a61 c0b9 3eec 4dbd 9f05 8cbd d156 c9bb
000001d0: 12b7 6cbd a4d9 f33b 8363 41be ee57 3abe
000001e0: 6f2d bd3d 6ae6 a23d e9fd f6bb bc19 983d
000001f0: 26fe 4b3d 2eba 8d3d 02f5 85bd 7988 5abe

conv.2.weight f4 [64, 128, 4]
0.032967035 0.039285142 0.058490977 0.040161632 -0.04554044 -0.024487536 -0.000579988 0.039895903
-0.0025755442 -0.06268391 0.00840726 0.042943057 -0.04701154 0.03571018 -0.04013443 0.016968086
-0.024081675 -0.02737224 -0.05093458 -0.03270538 0.0488612 0.01107009 -0.032941323 -0.014227318
-0.022066139 -0.025265865 -0.030578813 -0.010950144 0.036456592 -0.0010274992 0.03891233 0.0045979368
-0.027066767 0.014079818 -0.011210424 -0.05923576 -0.030936837 -0.0066335006 -0.059937317 0.00041013618
-0.0020491355 -0.046474703 0.00011270312 0.022836588 -0.02529691 0.0016071084 0.025046406 0.032400005
-0.070023365 -0.02427369 -0.035072237 -0.017887458 -0.030618295 -0.009860826 0.008589558 0.03792299
0.015519223 0.023274995 0.0030494742 -0.0026669235 0.04071587 0.005137729 -0.037577827 -0.017886903
0.002067555 0.01117631 0.058913775 0.040767178 -0.0031597016 -0.06338766 -0.025212074 -0.037673496
0.020582989 -0.037060477 -0.04096422 -0.0031878888 -0.022494558 0.003320635 -0.005976609 -0.015973367
-0.00028154533 0.022206057 0.01728655 0.026468458 -0.0047542006 0.0028791113 -0.02627379 0.035267536
0.037733402 0.011579397 -0.008379495 -0.04618667 -0.038654514 0.02286984 -0.02706507 0.01193915
0.027727569 -0.024781756 0.01781893 -0.008827604 -0.032904044 -0.023899281 -0.030666798 0.04015462
-0.032181706 -0.018885639 -0.046040554 -0.06427332 0.028230302 0.02905696 0.02256323 -0.009954197
-0.016157651 -0.02604882 -0.0013344657 0.010090767 0.018631376 -0.006936791 0.01902036 -0.028799977
-0.010002958 0.029765401 0.0037407754 0.03173014 -0.0427795 -0.03231315 -0.0109433625 -0.0050411033
0.0014753792 0.010645725 0.035599485 0.02611174 -0.006026447 -0.00067516486 -0.023242688 -0.0064296373
-0.023907047 -0.0012119825 -0.030538084 0.030513931 -0.047813572 -0.027586373 -0.02426431 0.04043493
-0.004976961 -0.031658832 0.014561313 -0.045028795 -0.042624313 -0.03221055 -0.04293529 -0.0775357
0.03409807 0.059542757 0.010801592 -0.03999142 -0.01367428 0.011392486 0.00046593015 -0.028070759
0.025190417 -0.0069571706 -0.009589563 -0.041616287 -0.022947844 0.030574664 -0.015833281 -0.02732299
-0.051556215 -0.052836817 0.030837975 -0.00044446343 0.017667737 -0.06401119 -0.05504867 -0.06431534
0.0032859126 -0.026203737 -0.010107644 -0.033860423 0.066134274 0.022322308 0.058005583 0.06350045
0.060395565 -0.007738566 0.04680133 -0.0039696703 -0.010991004 -0.03469608 0.013725079 -0.014318331
-0.008778424 0.0047842055 -0.05228551 0.0041288687 -3.0576197e-05 -0.013944512 0.022062063 -0.017040605
-0.0075956075 -0.021160632 0.045692805 -0.00514756 -0.034153823 -0.0067850035 -0.039010596 0.035438564
0.030297218 0.0063531096 0.034840863 -0.026153818 0.034072552 -0.0071906173 -0.05106572 -0.028433327
0.0122117335 -0.014213309 0.012681083 0.033487123 0.025742441 0.07159831 0.005771186 -0.042624168
0.0022717952 0.0032355266 0.012481575 -0.025945058 -0.028436251 -0.0113484515 0.004686833 -0.029825851
-0.032257937 -0.04117751 -0.03367795 0.0063404795 -0.02321327 0.0034080795 0.061551124 0.046328776
-0.008064619 0.05588702 0.01644706 -0.020490067 0.031501427 0.043558367 -0.020040624 0.028249787
0.032140404 -0.033774137 0.02780874 0.04110616 0.01285187 -0.027746418 0.014331887 -0.013828894
00000000: 7108 073d 75e9 203d 3c94 6f3d 8680 243d
00000010: 9d88 3abd 169a c8bc 560a 18ba e369 233d
00000020: 76ca 28bb 6c60 80bd 9bbe 093c 0fe5 2f3d
00000030: 2c8f 40bd d644 123d 0064 24bd a800 8b3c
00000040: ef46 c5bc bf3b e0bc c7a0 50bd 14f6 05bd
00000050: af22 483d 535f 353c 7bed 06bd b219 69bc
00000060: 0cc4 b4bc 5cfa cebc 6b80 fabc 3c68 33bc
00000070: 8253 153d 27ad 86ba 8962 1f3d 4aaa 963b
00000080: 20bb ddbc 09af 663c edab 37bc 32a1 72bd
00000090: 406f fdbc d65d d9bb d580 75bd 8c07 d739
000000a0: ca4a 06bb 425c 3ebd 075b ec38 cc13 bb3c
000000b0: 773b cfbc 9ca5 d23a 1f2e cd3c deb5 043d
000000c0: 6968 8fbd 9ed9 c6bc e8a7 0fbd b888 92bc
000000d0: 38d3 fabc 4d8f 21bc 38bb 0c3c 2355 1b3d
000000e0: 5744 7e3c 34ab be3c b0d9 473b 8dc7 2ebb
000000f0: afc5 263d 655a a83b 35eb 19bd 8e87 92bc
00000100: d17f 073b d71c 373c 924f 713d 7cfb 263d
00000110: ff12 4fbb 64d1 81bd 8d89 cebc 864f 1abd
00000120: a89d a83c bacc 17bd 19ca 27bd e6eb 50bb
00000130: 8246 b8bc 039f 593b 6ed7 c3bb 94da 82bc
00000140: 609c 93b9 7ae9 b53c 869c 8d3c 61d4 d83c
00000150: 20c9 9bbb 79af 3c3b 223c d7bc b174 103d
00000160: 578e 1a3d 83b7 3d3c 264a 09bc 3c2e 3dbd
00000170: 3254 1ebd 8859 bb3c 91b7 ddbc 6d9c 433c
00000180: ed24 e33c 1c03 cbbc 01f9 913c a8a1 10bc
00000190: 64c6 06bd 6dc8 c3bc f038 fbbc 2c79 243d
000001a0: f7d0 03bd 0eb6 9abc 0595 3cbd bba1 83bd
000001b0: 3c43 e73c dd08 ee3c 86d6 b83c ee16 23bc
000001c0: 0d5d 84bc 5664 d5bc 3de9 aeba bf53 253c
000001d0: d4a0 983c 054e e3bb 96d0 9b3c eeed ebbc
000001e0: 72e3 23bc 92d6 f33c cc27 753b 77f7 013d
000001f0: 8f39 2fbd cb5a 04bd ca4b 33bc d72f a5bb
00000200: 8361 c13a 686b 2e3c c4d0 113d 4ae8 d53c
00000210: 8079 c5bb 8cfd 30ba 7367 bebc b5af d2bb
00000220: b6d8 c3bc 62db 9eba 012b fabc 5af8 f93c
00000230: 2ad8 43bd d1fc e1bc f2c5 c6bc 199f 253d
00000240: c615 a3bb b1ac 01bd 9392 6e3c 1d70 38bd
00000250: d596 2ebd 36ef 03bd eadc 2fbd 09cb 9ebd
00000260: 6baa 0b3d 1be3 733d 29f9 303c 0bce 23bd
00000270: 160a 60bc 8da7 3a3c 1648 f439 a6f4 e5bc
00000280: 225c ce3c faf8 e3bb 8b1d 1dbc d775 2abd
00000290: 1efd bbbc b877 fa3c ccb4 81bc 77d4 dfbc
000002a0: 9c2c 53bd 6b6b 58bd ec9f fc3c df06 e9b9
000002b0: eebb 903c 4c18 83bd b77a 61bd c3b7 83bd
000002c0: 7758 573b 38a9 d6bc 889a 25bc 3ab1 0abd
000002d0: 6871 873d 46dd b63c 4397 6d3d 860c 823d
000002e0: 5761 773d cc93 fdbb c0b2 3f3d 0214 82bb
000002f0: 9d13 34bc 7a1d 0ebd 27df 603c 6f97 6abc
00000300: 61d3 0fbc d3c4 9c3b 5529 56bd 764b 873b
00000310: f13e 00b8 8677 64bc 80bb b43c bd98 8bbc
00000320: 93e4 f8bb 1059 adbc 6128 3b3d ddac a8bb
00000330: e1e4 0bbd bc54 debb 93c9 1fbd 0728 113d
00000340: df31 f83c bf2d d03b 4bb5 0e3d 8840 d6bc
00000350: a98f 0b3d 459f ebbb 4a2a 51bd 02ed e8bc
00000360: b913 483c f0de 68bc 51c4 4f3c cb29 093d
00000370: d0e1 d23c 22a2 923d 381c bd3b ae96 2ebd
00000380: 66e2 143b 210b 543b 857f 4c3c bb8a d4bc
00000390: 24f3 e8bc dbee 39bc 0194 993b 5855 f4bc
000003a0: e620 04bd c0a9 28bd e4f1 09bd ccc3 cf3b
000003b0: c129 bebc 165a 5f3b 081d 7c3d 3ec3 3d3d
000003c0: 7721 04bc cae9 643d fcbb 863c c9da a7bc
000003d0: a407 013d 426a 323d 3c2c a4bc 196c e73c
000003e0: a8a5 033d c056 0abd 28cf e33c ef5e 283d
000003f0: a690 523c 754c e3bc 4ad0 6a3c 9692 62bc

conv.2.bias f4 [64]
-0.058009077 -0.011200468 -0.050934058 -0.11976665 -0.029515596 0.012803558 -0.016390022 0.07699058
-0.025744982 -0.030958276 -0.02807292 -0.030324556 -0.053797923 -0.041709658 -0.051070586 0.016808707
-0.009942737 -0.07059044 -0.04943509 -0.068130895 -0.039854918 -0.029025828 -0.016526463 -0.02060673
-0.0080057215 -0.041172434 -0.058755443 -0.050402388 -0.005038473 0.055639878 -0.012743218 -0.012685738
0.03137072 -0.04059023 -0.06710437 -0.089393534 -0.014376014 -0.04134228 -0.019176135 -0.03684303
0.014100208 -0.024599832 -0.027908336 -0.0083787665 -0.09364897 -0.0082041975 -0.041199025 -0.034857657
0.008990852 -0.019616678 -0.03449274 -0.06942944 -0.032485127 -0.02162878 -0.040442627 -0.020847604
-0.025013328 -0.07469997 -0.06214606 -0.05493049 0.00013143102 -0.0868932 -0.051501077 -0.04245941
00000000: ed9a 6dbd 2b82 37bc 3ba0 50bd 3848 f5bd
00000010: b1ca f1bc 04c6 513c 5e44 86bc 3dad 9d3d
00000020: 24e7 d2bc 369c fdbc 2ef9 e5bc 346b f8bc
00000030: 365b 5cbd bfd7 2abd 642f 51bd 6ab2 893c
00000040: dde6 22bc b891 90bd 737c 4abd 3688 8bbd
00000050: e93e 23bd 93c7 edbc 8162 87bc 72cf a8bc
00000060: 6e2a 03bc 6da4 28bd 8ca9 70bd bc72 4ebd
00000070: c619 a5bb a4e6 633d eec8 50bc d7d7 4fbc
00000080: 967e 003d f141 26bd 046e 89bd f513 b7bd
00000090: 5f89 6bbc 8656 29bd 4517 9dbc b8e8 16bd
000000a0: 8f04 673c 9685 c9bc 06a0 e4bc 1847 09bc
000000b0: 08cb bfbd e66a 06bc 4fc0 28bd e7c6 0ebd
000000c0: 5e4e 133c 28b3 a0bc 4248 0dbd 0631 8ebd
000000d0: 200f 05bd d72e b1bc 2ba7 25bd 98c8 aabc
000000e0: c0e8 ccbc 4cfc 98bd de8c 7ebd cbfe 60bd
000000f0: bfd0 0939 10f5 b1bd cbf2 52bd ebe9 2dbd

conv.4.weight f4 [32, 64, 2]
-0.005474359 -0.06692518 0.019332564 0.15149969 0.036369868 0.14491779 0.075630546 0.053706322
0.043876693 -0.041128885 -0.011458657 -0.041706182 -0.020091705 0.07271386 -0.03432161 -0.03736538
-0.053843435 0.012942903 -0.069809705 -0.04102132 0.05418932 0.05660175 0.124958985 -0.016184209
-0.031229736 -0.028366752 0.12278871 0.099307865 0.07108673 -0.00024242802 -0.057134494 -0.08343477
-0.020540701 -0.016047789 0.07893417 0.038901035 0.009371829 -0.0014215128 0.029938418 -0.030441403
-0.062790945 0.046604645 -0.015839476 0.0054954384 0.051806577 0.015175995 0.06402303 0.09730373
0.052021436 0.021867117 0.012676695 0.034661073 0.028274862 -0.019308304 -0.08392282 0.051073797
0.034018263 0.10593507 -0.027152432 -0.05261278 -0.0106702335 -0.057627674 -0.025254084 -0.035039086
-0.01866944 -0.011017994 0.010831675 0.014549234 -0.044844717 -0.0059841843 -0.07016252 0.1240109
-0.023241216 -0.021703934 -0.01948864 -0.014785127 -0.079732895 0.037477415 0.025613742 0.12643722
0.011509392 -0.04575024 -0.036202393 -0.0010782103 -0.016656505 0.031901974 0.05978514 -0.018367548
0.039153483 0.046399996 -0.0077549806 0.053101253 0.023431526 0.07246097 0.03493165 -0.019101778
0.04586423 -0.018251928 0.06751284 0.06548941 -0.078119874 0.04941756 0.028279351 0.016571714
-0.027477147 -0.035953924 0.0547925 0.043622844 0.042755384 0.10513443 -0.016506895 -0.008335882
-0.01069542 -0.05387166 -0.012711641 -0.032442864 0.06820182 -0.015878703 0.053444903 0.0018346902
0.03217604 -0.041861795 0.06602687 -0.005665784 -0.07183476 0.111558594 0.049992975 -0.03161823
-0.071351066 0.021473117 0.009783015 0.05618746 -0.030011786 0.059057135 0.07924222 -0.0035315908
0.067810826 -0.03186287 -0.020978412 -0.03242624 -0.00094732246 -0.010745503 -0.038831007 -0.04267031
0.029952126 0.06763428 -0.07952808 0.021730375 0.07158044 0.022497818 0.049182948 0.104391
-0.009271788 -0.004785655 0.025606705 0.072281405 0.09497962 0.05103167 -0.047974404 -0.10023941
0.0124852015 0.019436639 0.09144566 0.03136621 -0.07437269 -0.0008993893 -0.008947413 0.053381003
0.07463917 -0.06628006 -0.009946255 -0.019087486 -0.019424757 0.02740028 0.10138038 0.09478258
0.044051625 0.020091541 -0.006671421 0.009837534 0.027287677 0.053126276 0.020504205 0.059528988
0.038768034 0.084315546 -0.034117445 -0.054584693 0.05303674 0.037366822 -0.015531369 -0.024766734
-0.009635802 -0.016091896 -0.003447131 0.018653084 0.1495774 -0.034139134 0.004447079 0.008043669
-0.030173305 -0.026794719 -0.03064252 -0.038417682 -0.021254256 -0.0010399828 0.005003616 -0.01534393
0.043774553 -0.06882928 0.0372957 -0.03972851 -0.021156276 0.018831924 0.032594904 0.028763305
-0.03296909 -0.00849146 0.06182203 0.07465919 -0.04283317 0.06558385 0.07641163 0.06511359
0.03655229 -0.009462887 -0.027043683 0.0010309231 -0.052069664 0.023852576 0.052508824 0.007133509
-0.04566239 -0.018656045 -0.02874637 0.039502002 0.06134145 0.06869296 -0.009207682 -0.005160424
0.007742387 -0.052600134 0.0005619608 -0.027444715 0.044607375 0.13193257 0.053623356 0.024857977
-0.059774585 -0.10017453 -0.027271174 -0.047707003 0.16424279 0.034398276 0.15965764 -0.01345165
00000000: 4062 b3bb 1210 89bd 535f 9e3c bc22 1b3e
00000010: 92f8 143d 5465 143e 30e4 9a3d 29fb 5b3d
00000020: 0cb8 333d c376 28bd 17bd 3bbc 1ad4 2abd
00000030: 5c97 a4bc 01eb 943d d194 0cbd 710c 19bd
00000040: ef8a 5cbd 780e 543c 64f8 8ebd f905 28bd
00000050: 9ff5 5d3d 3dd7 673d 7fea ff3d bf94 84bc
00000060: 81d5 ffbc 6461 e8bc a678 fb3d ec61 cb3d
00000070: eb95 913d 4734 7eb9 dc05 6abd d9df aabd
00000080: f944 a8bc a776 83bc 3da8 a13d b156 1f3d
00000090: 4d8c 193c 0e52 baba 6a41 f53c 4060 f9bc
000000a0: 8a98 80bd 83e4 3e3d cac1 81bc 1413 b43b
000000b0: 2233 543d bda4 783c 821e 833d 2e47 c73d
000000c0: 6e14 553d ab22 b33c eab1 4f3c c5f8 0d3d
000000d0: afa0 e73c 732c 9ebc badf abbd c232 513d
000000e0: bc56 0b3d 7cf4 d83d c76e debc 8080 57bd
000000f0: 34d2 2ebc ff0a 6cbd a7e1 cebc 2585 0fbd
00000100: a7f0 98bc d184 34bc 5677 313c e95f 6e3c
00000110: 18af 37bd fa16 c4bb 5eb1 8fbd 6df9 fd3d
00000120: 5d64 bebc 73cc b1bc a4a6 9fbc 513d 72bc
00000130: 004b a3bd eb81 193d e9d3 d13c c278 013e
00000140: e491 3c3c 9b64 3bbd f648 14bd bc52 8dba
00000150: 3973 88bc a5ab 023d 43e1 743d 8a77 96bc
00000160: 675f 203d ec0d 3e3d 7e1d febb b380 593d
00000170: 79f3 bf3c 6b66 943d 7d14 0f3d 557b 9cbc
00000180: 21dc 3b3d 1185 95bc 2c44 8a3d 501f 863d
00000190: 50fd 9fbd 116a 4a3d 19aa e73c 67c1 873c
000001a0: c117 e1bc 6c44 13bd 1a6e 603d dead 323d
000001b0: 4520 2f3d b850 d73d 7839 87bc 3993 08bc
000001c0: d83b 2fbc 88a8 5cbd 7d44 50bc cfe2 04bd
000001d0: 65ad 8b3d 0e14 82bc 0be9 5a3d fd79 f03a
000001e0: 06cb 033d 4677 2bbd 1839 873d 0aa8 b9bb
000001f0: 1a1e 93bd d578 e43d 6fc5 4c3d 1e82 01bd
00000200: 8220 92bd 64e8 af3c f048 203c d224 663d
00000210: 47db f5bc e5e5 713d bf49 a23d 4372 67bb
00000220: 67e0 8a3d a482 02bd ebda abbc 61d1 04bd
00000230: bc55 78ba e80d 30bc 430d 1fbd 10c7 2ebd
00000240: 295e f53c d783 8a3d 9edf a2bd e603 b23c
00000250: c498 923d 584d b83c 0f74 493d f3ca d53d
00000260: b3e8 17bc fcd0 9cbb 27c5 d13c 4608 943d
00000270: ad84 c23d 9606 513d cf80 44bd 524a cdbd
00000280: bb8e 4c3c 9639 9f3c dd47 bb3d db79 003d
00000290: b550 98bd ffc4 6bba 2c98 12bc 0aa6 5a3d
000002a0: 6cdc 983d d7bd 87bd 9ef5 22bc 5c5d 9cbc
000002b0: ab20 9fbc 8d76 e03c 84a0 cf3d 5f1d c23d
000002c0: 7a6f 343d 0497 a43c f09b dabb 9c2d 213c
000002d0: 688a df3c f09a 593d 6ff8 a73c abd4 733d
000002e0: 3bcb 1e3d a1ad ac3d bcbe 0bbd 3394 5fbd
000002f0: 0d3d 593d f40d 193d 4877 7ebc 9be3 cabc
00000300: 7cdf 1dbc 27d3 83bc 43e9 61bb 5ace 983c
00000310: d12a 193e 7ad5 0bbd cdb8 913b 98c9 033c
00000320: 022e f7bc 9980 dbbc 0606 fbbc dc5b 1dbd
00000330: 681d aebc 0850 88ba 60f5 a33b 1b65 7bbc
00000340: f24c 333d 5ef6 8cbd 60c3 183d 5dba 22bd
00000350: ed4f adbc 6845 9a3c 3c82 053d 06a1 eb3c
00000360: 990a 07bd c41f 0bbc 1939 7d3d ebe6 983d
00000370: d671 2fbd d350 863d b37d 9c3d 465a 853d
00000380: dbb7 153d 3a0a 1bbc b78a ddbc 0a20 873a
00000390: 0047 55bd 7a66 c33c 7e13 573d 36c0 e93b
000003a0: 7c08 3bbd 90d4 98bc 827d ebbc dacc 213d
000003b0: 2c41 7b3d e5ae 8c3d d1db 16bc c618 a9bb
000003c0: d9b3 fd3b 3d73 57bd 8d50 133a bdd3 e0bc
000003d0: 39b6 363d 5519 073e 2aa4 5b3d f5a2 cb3c
000003e0: 32d6 74bd 4e28 cdbd cc67 dfbc 6b68 43bd
000003f0: 432f 283e 35e5 0c3d 4b7d 233e 4f64 5cbc

conv.4.bias f4 [32]
-0.051121462 -0.055050444 0.041275 -0.03810872 0.043396123 0.04243039 0.0402898 0.08212889
0.0077791456 -0.057042483 -0.06547256 0.012798396 -0.029999806 0.011323308 -0.032897674 -0.08017552
0.0009168845 -0.06985668 -0.08326434 0.074431166 -0.03821261 -0.06779209 -0.0018985032 0.017241085
0.0492377 -0.07598059 0.043560937 -0.031129831 0.0430808 0.04157834 0.011108005 -0.059610184
00000000: bd64 51bd 937c 61bd f90f 293d e417 1cbd
00000010: 22c0 313d 7dcb 2d3d eb06 253d 3133 a83d
00000020: 34e8 fe3b 61a5 69bd 7a16 86bd 5db0 513c
00000030: 27c2 f5bc 6585 393c b6bf 06bd 1033 a4bd
00000040: 145b 703a 0511 8fbd 7f86 aabd 5e6f 983d
00000050: d384 1cbd 94d6 8abd 32d7 f8ba 2d3d 8d3c
00000060: 78ad 493d b69b 9bbd f46c 323d fd03 ffbc
00000070: 7e75 303d 0d4e 2a3d 5afe 353c cf29 74bd

conv.5.weight f4 [32]
1.0683004 1.0032511 1.1524739 0.8620618 1.2088665 0.9238944 1.0163107 1.1151383
1.0397428 1.1021665 0.9511782 1.0864844 1.0465137 1.0346563 0.9996392 1.0426493
1.0093396 1.0714694 1.1459783 1.0456394 1.0828124 1.1062559 1.0774637 1.0592694
1.018355 1.0805991 1.0968071 1.1135782 1.0370146 1.1090344 1.0457124 1.1496264
00000000: 11be 883f 886a 803f 4484 933f 15b0 5c3f
00000010: 23bc 9a3f 5884 6c3f 7816 823f dabc 8e3f
00000020: 4b16 853f cb13 8d3f 6a80 733f ec11 8b3f
00000030: 29f4 853f 9e6f 843f 5be8 7f3f 8875 853f
00000040: 0a32 813f e925 893f 6baf 923f 83d7 853f
00000050: 9999 8a3f cb99 8d3f 55ea 893f 2496 873f
00000060: 7559 823f 1251 8a3f 2d64 8c3f bb89 8e3f
00000070: e5bc 843f d7f4 8d3f e7d9 853f f526 933f

conv.5.bias f4 [32]
-0.33216694 -0.34162462 -0.27178246 -0.37757677 -0.27537632 -0.32880065 -0.26226956 -0.31936535
-0.3741792 -0.37505534 -0.39311114 -0.36128107 -0.3439671 -0.39606556 -0.34016195 -0.33032516
-0.32571265 -0.33886597 -0.27715266 -0.29075393 -0.15099649 -0.15072456 -0.18125266 -0.14215513
-0.2946277 -0.31519172 -0.288778 -0.29280263 -0.17234443 -0.19149022 -0.34066445 -0.34888726
00000000: c911 aabe 6ce9 aebe 1227 8bbe be51 c1be
00000010: 20fe 8cbe 8f58 a8be 3248 86be db83 a3be
00000020: 6b94 bfbe 4107 c0be dd45 c9be d5f9 b8be
00000030: 751c b0be 1bc9 cabe b529 aebe 6120 a9be
00000040: cfc3 a6be d77f adbe f4e6 8dbe b3dd 94be
00000050: d39e 1abe 8a57 1abe 4c9a 39be 1d91 11be
00000060: 71d9 96be cf60 a1be b6da 93be 3aea 95be
00000070: 0f7b 30be 0316 44be 926b aebe 5aa1 b2be

conv.5.running_mean f4 [32]
-0.06695207 -0.071561135 0.036508907 -0.056322876 0.044940382 0.035073258 0.04998351 0.08978302
-0.0010281552 -0.036205072 -0.07299563 0.00042940106 -0.02622526 0.01046972 -0.023220709 -0.07262843
-0.0017454791 -0.08214968 -0.08589505 0.082500726 -0.009738064 -0.038997516 0.033867404 0.057684712
0.036072627 -0.08273576 0.033697184 -0.04698791 0.05545022 0.060103353 0.013617314 -0.07551115
00000000: 2b1e 89bd a58e 92bd 5d8a 153d d1b2 66bd
00000010: 6813 383d faa8 0f3d 82bb 4c3d 29e0 b73d
00000020: 2ac3 86ba c54b 14bd bc7e 95bd 3c21 e139
00000030: 5bd6 d6bc 3089 2b3c 5b39 bebc 37be 94bd
00000040: 8fc8 e4ba 173e a8bd bee9 afbd 24f6 a83d
00000050: 678c 1fbc dcbb 1fbd 8cb8 0a3d ce46 6c3d
00000060: e4c0 133d 5e71 a9bd 0f06 0a3d 6576 40bd
00000070: c51f 633d ef2e 763d 281b 5f3c 97a5 9abd

conv.5.running_var f4 [32]
0.00031121648 0.0002515915 0.00026169 0.00038494382 0.00038274872 0.00044550886 0.00027272533 0.00023224203
0.00026935546 0.00028017 0.00021995931 0.00020166459 0.00027196412 0.0002775565 0.00017614086 0.00020754467
0.00022379242 0.00020734878 0.0002843639 0.0003124323 0.00042901892 0.0007188538 0.0008110319 0.0005353281
0.00030035392 0.00033473584 0.00032649087 0.00033270413 0.0002832924 0.00054476265 0.00037445078 0.00027076798
00000000: c52a a339 0ae8 8339 7033 8939 49d2 c939
00000010: aaab c839 3093 e939 93fc 8e39 ff85 7339
00000020: 4738 8d39 c8e3 9239 e1a4 6639 ed75 5339
00000030: 6896 8e39 0185 9139 74b2 3839 59a0 5939
00000040: d2a9 6a39 c46b 5939 ad16 9539 f4cd a339
00000050: f2ed e039 7671 3c3a 6e9b 543a 4355 0c3a
00000060: d278 9d39 7c7f af39 dd2c ab39 cb6e ae39
00000070: dd86 9439 67ce 0e3a ef51 c439 ddf5 8d39

conv.9.weight f4 [32, 1504]
-0.012811924 0.006225707 0.012236869 0.01663398 0.01167323 0.021847857 0.006804804 -0.0038807348
-0.010608155 0.039508723 0.0050926455 -0.004638293 0.017434798 0.024219373 -0.0016278327 -0.011261201
0.004873528 0.027117517 0.032343224 0.002587002 -0.004218432 0.013181581 0.010509678 -0.0072716293
-0.018756498 -0.006499118 -0.019278627 0.0061937724 -0.016499572 0.002197973 0.0011387452 -0.030970471
0.0057556136 0.01842313 -0.0058761737 0.00094278506 -0.04184757 -0.038466386 -0.025104456 -0.04267682
-0.055687733 -0.019678002 -0.020321285 -0.0013709074 -0.030792736 -0.007024569 0.051824026 -0.06584772
0.0017039616 0.020795872 0.026289169 0.004615393 0.007843296 -0.03037669 0.011995249 0.012203232
-9.8922435e-05 0.012445565 0.0021578067 0.034067813 0.024844576 0.013339656 0.039414145 0.02843569
0.027415426 0.0208095 0.046361133 0.02613897 0.021448681 0.04938755 0.008439236 0.008394024
0.02746054 0.024562132 0.011534755 0.037591066 0.028942505 0.046563067 0.03403115 0.045659073
0.025055254 0.016923426 0.018908499 0.01766228 0.02614277 0.04077254 0.02395265 0.034749594
0.02379513 0.056817267 0.02360636 0.03808124 0.0054580336 0.040014833 0.024389038 0.029231338
-0.013799219 0.02971182 0.006289101 0.016880075 0.017760145 0.004367204 0.025961671 0.007868417
0.0032626127 0.012018771 0.0009976305 0.0068453923 0.0072479094 0.002775979 0.00220506 0.0064208014
-0.000730917 0.0044572367 0.002348439 -0.020547751 0.0018667503 0.0009959488 -0.0037917562 -0.012644503
-0.00057008443 -0.0031190924 -0.021491934 -0.027179345 0.00077542744 0.0031214436 -0.012343342 -0.027374763
-0.018304864 -0.03657798 -0.010487989 -0.06395851 -0.047283135 -0.045337953 -0.0367137 -0.046498954
0.008312318 0.008860208 -0.0058234646 0.0016761137 0.035651725 0.15117866 -0.0583401 -0.030958088
-0.057413682 -0.026751373 -0.022255655 -0.038798302 -0.051898126 -0.056669712 -0.029113658 -0.025086181
-0.020211438 -0.025386726 -0.024131883 -0.018493038 -0.015540775 0.0011042327 -0.0055961185 -0.018182842
-0.0050153625 -0.02496795 -0.01165612 -0.020665908 -0.0015214522 -0.020854864 -0.014433788 0.0010782074
-0.038683683 -0.00947019 0.034855653 0.008042342 0.017336672 0.010762459 -0.0027124465 -0.02557733
0.010088647 -0.005572009 -0.00244962 -0.013037802 -0.002439211 0.012617988 -0.0015177374 -0.006248827
0.011530318 -0.0028623603 0.008256086 0.027242735 0.0009105587 0.018449478 -0.013427588 0.020643717
-5.803102e-05 0.016880818 0.016609406 -0.0064391186 -0.005351874 0.0040059513 -0.018378917 -0.010686103
0.025423255 0.020275123 0.017780818 0.0060598147 0.015203972 0.011207371 -0.003295646 -0.00916973
0.0031732884 0.008012028 0.021386256 -0.012032005 0.015305349 -0.0017893171 -0.026190093 -0.035041023
-0.03741898 -0.032514893 -0.028533543 -0.009790754 -0.048900515 -0.05692871 -0.007843362 -0.033010986
-0.03095907 -0.039225418 -0.050027 -0.025089849 -0.0107835205 -0.03316148 -0.0022345704 0.0038469105
-0.0049769436 0.04382032 0.018651063 0.30208674 -0.055797774 -0.0062233587 -0.04197802 -0.017765008
-0.05656371 -0.0018867997 -0.043478556 0.02512915 -0.0031082155 -0.0041237944 -0.01415362 -0.001409053
0.003687071 0.0056202295 0.0047501815 0.002972831 0.0063063325 0.007941156 -0.0052168104 -0.012013633
00000000: 1be9 51bc 0401 cc3b 267d 483c fc43 883c
00000010: 1341 3f3c 47fa b23c d5fa de3b ed53 7ebb
00000020: d4cd 2dbc e6d3 213d 35e0 a63b d2fc 97bb
00000030: 6cd3 8e3c b567 c63c 005d d5ba e780 38bc
00000040: 1eb2 9f3b 8e25 de3c 547a 043d b18a 293b
00000050: c63a 8abb 8ff7 573c c930 2c3c d946 eebb
00000060: 3aa7 99bc 8ef6 d4bb 36ee 9dbc 21f5 ca3b
00000070: 1c2a 87bc de0b 103b f341 953a c9b5 fdbc
00000080: 9699 bc3b 1bec 963c eb8c c0bb 3c25 773a
00000090: 5c68 2bbd ee8e 1dbd dca7 cdbc e4cd 2ebd
000000a0: d218 64bd c333 a1bc d378 a6bc 05b0 b3ba
000000b0: 0c41 fcbc 5b2e e6bb 6e45 543d 2bdb 86bd
000000c0: 7757 df3a 1b5c aa3c 625c d73c b93c 973b
000000d0: 2b81 003c 89d8 f8bc b987 443c 11f0 473c
000000e0: 9474 cfb8 7ce8 4b3c fd69 0d3b b18a 0b3d
000000f0: da86 cb3c 938e 5a3c ba70 213d f7f1 e83c
00000100: 5196 e03c af78 aa3c 2ce5 3d3d 6521 d63c
00000110: 25b5 af3c 9a4a 4a3d b944 0a3c 1787 093c
00000120: edf4 e03c 8636 c93c 45fc 3c3c 17f9 193d
00000130: d518 ed3c eab8 3e3d 3f64 0b3d 0205 3b3d
00000140: ad40 cd3c ffa2 8a3c ffe5 9a3c 7cb0 903c
00000150: 5d29 d63c 1b01 273d 5938 c43c 9755 0e3d
00000160: 01ee c23c 39b9 683d 2062 c13c 13fb 1b3d
00000170: 4ed9 b23b 98e6 233d 85cb c73c 8f76 ef3c
00000180: 1f16 62bc 3466 f33c ce14 ce3b 1548 8a3c
00000190: b97d 913c c31a 8f3b 92ad d43c 88ea 003c
000001a0: 8fd1 553b 61ea 443c edc2 823a 504f e03b
000001b0: df7f ed3b 33ed 353b c582 103b 9665 d23b
000001c0: 029b 3fba 030e 923b 45e8 193b c253 a8bc
000001d0: bfad f43a 7f8a 823a 1d7f 78bb e42a 4fbc
000001e0: b871 15ba b069 4cbb da0f b0bc 38a7 debc
000001f0: 0e46 4b3a 2291 4c3b bb3b 4abc 0a41 e0bc
00000200: 15f4 95bc cbd2 15bd d0d5 2bbc aefc 82bd
00000210: f6ab 41bd 4ab4 39bd 1b61 16bd b075 3ebd
00000220: 6330 083c 682a 113c c3d2 bebb 0bb1 db3a
00000230: 8b07 123d 94ce 1a3e 07f6 6ebd d19b fdbc
00000240: 9c2a 6bbd b225 dbbc 7e51 b6bc f8ea 1ebd
00000250: 2193 54bd 801e 68bd c47f eebc 8981 cdbc
00000260: 7592 a5bc d3f7 cfbc 3ab0 c5bc b67e 97bc
00000270: bc9e 7ebc e7bb 903a a55f b7bb 2ff4 94bc
00000280: e957 a4bb 9689 ccbc 50f9 3ebc 8d4b a9bc
00000290: 776b c7ba d2d7 aabc b27b 6cbc a352 8d3a
000002a0: c872 1ebd db28 1bbc cdc4 0e3d 07c4 033c
000002b0: a305 8e3c 0655 303c 4dc3 31bb 8c87 d1bc
000002c0: da4a 253c 6695 b6bb ce89 20bb 819c 55bc
000002d0: 2bdb 1fbb adbb 4e3c d1ee c6ba f6c2 ccbb
000002e0: a9e9 3c3c 7096 3bbb 8944 073c 282c df3c
000002f0: 8fb2 6e3a 5c23 973c 63ff 5bbc 031d a93c
00000300: 5566 73b8 a449 8a3c 7310 883c 3eff d2bb
00000310: c65e afbb 5b44 833b 628f 96bc c414 2fbc
00000320: 6e44 d03c 0418 a63c 14a9 913c 6991 c63b
00000330: 151a 793c 1f9f 373c c4fb 57bb a33c 16bc
00000340: f2f6 4f3b e244 033c 3b32 af3c e321 45bc
00000350: 49c3 7a3c 8587 eaba 9b8c d6bc 2d87 0fbd
00000360: a544 19bd 562e 05bd 2dbf e9bc 6669 20bc
00000370: e84b 48bd 142e 69bd 7281 00bc 8736 07bd
00000380: e09d fdbc d5aa 20bd 1de9 4cbd 3a89 cdbc
00000390: 5dad 30bc 55d4 07bd df71 12bb 731c 7c3b
000003a0: a115 a3bb f07c 333d 1dca 983c 1dab 9a3e
000003b0: 358c 64bd 51ed cbbb 25f1 2bbd ec87 91bc
000003c0: 59af 67bd 7e4e f7ba 9216 32bd a6db cd3c
000003d0: 34b3 4bbb e520 87bb 96e4 67bc f9af b8ba
000003e0: c9a2 713b e729 b83b 69a7 9b3b d4d3 423b
000003f0: 5aa5 ce3b 9f1b 023c c7f1 aabb d4d4 44bc

conv.9.bias f4 [32]
-0.008588668 -0.055554222 -0.0045166314 0.01325544 0.0050271256 0.008447766 0.022664348 0.0131765
-0.0074799983 0.01719096 0.012780977 -0.013726427 -0.001955575 -0.0029879792 0.02020263 0.017692262
-0.026732944 0.00290279 -0.0067618513 0.047175653 0.0040793587 -0.00032167044 -0.016279949 0.015600447
0.025007848 0.033159327 -0.017147247 0.0068460456 -0.013672298 -0.011087269 0.021217054 0.019422164
00000000: 7cb7 0cbc d38c 63bd 4000 94bb 582d 593c
00000010: 96ba a43b 8068 0a3c 95aa b93c 3fe2 573c
00000020: c61a f5bb 0ed4 8c3c 4e67 513c cfe4 60bc
00000030: 1b29 00bb f9d1 43bb fc7f a53c 5def 903c
00000040: 0cff dabc bc3c 3e3b 8592 ddbb 423b 413d
00000050: 24ac 853b e0a5 a8b9 875d 85bc 0499 7f3c
00000060: 42dd cc3c 13d2 073d 6278 8cbc cb54 e03b
00000070: c601 60bc 60a7 35bc 63cf ad3c 3b1b 9f3c

fc.0.weight f4 [2, 32]
0.7325369 0.12640488 0.02755088 0.06088749 -0.036080558 -0.05992948 -0.07470874 -0.44997808
-0.37469003 0.05097736 -0.14294222 -0.33463994 -0.53599864 -0.26614276 0.07238061 -0.0282516
0.21031699 0.25560084 0.27294773 0.5576909 -0.44502398 -0.27081504 -0.35046512 -0.18425843
-0.41692984 0.62631357 0.5372708 -0.45629084 -0.44353232 0.031327788 -0.38084936 0.043519653
-0.6834364 -0.455889 0.2243086 0.18850282 -0.073361255 0.2505856 -0.07569027 0.490797
0.3321326 -0.05577575 0.05405996 0.06334324 0.64403695 0.098935306 0.13293928 0.2445717
-0.43558773 -0.3343293 -0.2783824 -0.58796704 0.473005 0.23640504 0.33488262 -0.12676287
0.24403392 -0.4972321 -0.5952547 0.28871635 0.5253585 -0.26077083 0.22600034 0.18696778
00000000: 8a87 3b3f 4870 013e 62b2 e13c 2965 793d
00000010: 35c9 13bd 9d78 75bd e500 99bd 8763 e6be
00000020: 5fd7 bfbe a3cd 503d 725f 12be ed55 abbe
00000030: 3537 09bf dd43 88be 493c 943d e66f e7bc
00000040: 565d 573e 1dde 823e cebf 8b3e d5c4 0e3f
00000050: 2fda e3be 45a8 8abe 2a70 b3be 3eae 3cbe
00000060: d477 d5be 1656 203f 948a 093f f49e e9be
00000070: ab16 e3be 9151 003d b0fe c2be aa41 323d
00000080: b0f5 2ebf 486a e9be 27b1 653e e206 413e
00000090: 6d3e 96bd c14c 803e 8003 9bbd bf49 fb3e
000000a0: 490d aa3e 1d75 64bd fa6d 5d3d 1aba 813d
000000b0: 9bdf 243f 989e ca3d 3c21 083e 0171 7a3e
000000c0: 5b05 dfbe 362d abbe 2388 8ebe 0285 16bf
000000d0: b62d f23e 2a14 723e bc75 ab3e 20ce 01be
000000e0: 07e4 793e 3595 febe 9d62 18bf a1d2 933e
000000f0: e57d 063f c183 85be a26c 673e 7b74 3f3e

fc.0.bias f4 [2]
0.15885437 0.11225081
00000000: b8aa 223e c1e3 e53d

momentum_buffer f4 [128, 4, 8]
-0.012653281 0.0030106585 0.0077416534 -0.004544175 0.017953282 -0.0047238986 -0.0046534883 0.00092975097
-0.00078715803 0.013796566 0.024885835 0.0040033343 -0.008728662 0.011139689 0.018777624 0.010478182
0.018256538 5.2569318e-05 -0.018743187 0.007451008 -0.00027188822 0.00038218917 -0.0028430838 -0.0083580315
0.0053182924 -0.0067253993 -0.0037499047 0.0032242252 0.0011816517 0.0033364068 -0.001146662 0.0070844907
0.0021418307 -0.00065286295 -0.0035095983 -0.00016748515 0.0055602333 0.002155257 0.002353521 -0.0025959811
-0.00032805966 0.007111347 0.002611386 0.0050638476 0.004687407 0.0008220384 0.0011190895 0.0032508874
-0.004814462 -0.0071018664 -0.0072466973 -0.014597398 -0.011085547 -0.0067975847 -0.0023170374 -0.010511965
0.0024512748 9.39669e-05 0.0075954953 0.00915162 0.0002884913 0.0032708729 -0.0017049874 0.009307644
0.0025229785 -0.0041240817 -0.003383994 -0.0002666628 -0.00663919 -0.0035710707 -0.0072849737 -0.010750653
0.0082988795 -0.0127469925 -0.0027499269 -0.006101871 -0.0024346034 -0.0011159481 -0.0050775707 0.0017064445
0.011761398 -0.006836461 0.002865369 0.01926097 0.009380005 0.012906516 0.024530476 0.0036307033
-0.0346306 0.011660199 -0.008778803 -0.024939787 -0.012353566 -0.020266842 -0.024215277 -0.0066338414
-0.0042393175 -0.016274843 -0.014220466 -0.010965922 -0.006566713 -0.0072001955 -0.013187152 -0.005130132
0.0045229974 0.018230794 0.02219259 0.011821881 0.0054190964 -0.0028300078 0.0109447 0.0018753279
-0.0009809216 -0.005073934 -0.0045018573 -0.006380856 -0.00893379 -0.012508271 -0.0057056467 -0.0027386937
-0.0029393295 -0.0005185929 -0.007106835 0.0018883296 0.0064448356 0.0189019 0.004311526 0.0023569237
-0.0059993826 0.0065412177 5.0145667e-05 0.005745692 -0.01081146 0.016646167 0.020540446 0.017419122
-0.0022049341 0.0018242085 0.015139772 0.0010364233 -0.0048930757 -0.0025109816 0.00025099877 -0.0015324616
0.018099513 0.004789925 -0.0070184246 0.0041225683 0.007109887 -0.0037551033 -0.008521967 0.0052689365
0.005521352 0.0022612005 0.007245063 0.0045118667 0.024011202 0.0050364635 0.0031470747 -0.0057390463
0.012674232 0.008846058 0.0039878506 0.0032634563 0.0029134601 0.018993352 0.0016678341 -0.0019081882
0.0007046866 -0.000548062 0.00222142 0.004989595 -0.00010876707 -0.00033314858 0.0045426176 0.004008652
-0.0028733714 0.0025855969 0.0024750598 -0.006172707 0.003640423 -0.0059217596 0.005481193 0.008520072
0.001981161 0.0016031178 0.0038023815 0.010406365 0.0060416018 -0.00025173265 0.00079506764 0.0018661763
-0.0012360861 0.0031832457 -0.005065256 -0.00049351447 0.01209296 0.002242091 0.009987965 0.0030755694
0.01674345 0.0043321587 0.0020807555 0.009105773 0.0057183225 0.006972744 -0.00357997 0.0075843334
-0.0011585414 0.00048623903 0.015824415 0.008434476 -0.007587523 0.005636104 0.0070730536 -0.0016603965
-0.0021219533 0.0042252266 -0.00061304576 -0.004819865 0.0020031126 -0.0026240689 -0.0012541785 0.003227367
-0.009085517 -0.0013790108 0.0032044093 0.012449332 -0.00075722625 0.00077300996 0.0023088707 -0.004804455
0.0028183747 -0.004163049 -0.0037170753 -0.010243958 -0.01106335 -0.01386743 -0.0043975664 -0.0020372246
-0.001095653 0.0018592519 -0.0012200886 0.0073967874 0.018168874 -0.0015111635 0.0023642117 0.005014795
-0.01000482 -0.013684807 -0.015634865 -0.02696978 -0.023715898 -0.0027620292 -0.017643128 -0.01554073
00000000: b54f 4fbc 784e 453b b2ad fd3b 4ee7 94bb
00000010: c312 933c efca 9abb 4a7c 98bb 88ba 733a
00000020: 4859 4eba fe0a 623c 61dd cb3c 672e 833b
00000030: a902 0fbc 3e83 363c 88d3 993c aeac 2b3c
00000040: bc8e 953c e07d 5c38 508b 99bc 9627 f43b
00000050: 388c 8eb9 9060 c839 0853 3abb 20f0 08bc
00000060: 1245 ae3b bd60 dcbb f6c0 75bb 864d 533b
00000070: a7e1 9a3a 9ea7 5a3b 984b 96ba 0425 e83b
00000080: f55d 0c3b e424 2bba 4a01 66bb f49e 2fb9
00000090: 9e32 b63b 363f 0d3b 883d 1a3b 5621 2abb
000000a0: 6cff abb9 4d06 e93b c923 2b3b a2ee a53b
000000b0: d298 993b 107e 573a 6aae 923a d70c 553b
000000c0: a2c2 9dbb c6b6 e8bb b475 edbb ed29 6fbc
000000d0: 27a0 35bc 46be debb 70d9 17bb 603a 2cbc
000000e0: 91a5 203b 1810 c538 a2e3 f83b adf0 153c
000000f0: a640 9739 245c 563b e279 dfba 177f 183c
00000100: 8e58 253b 4e23 87bb 00c6 5dbb e0ce 8bb9
00000110: 908d d9bb a008 6abb cab6 eebb 8223 30bc
00000120: 06f8 073c c3d8 50bc 1e38 34bb 34f2 c7bb
00000130: de8d 1fbb 0145 92ba c061 a6bb c7aa df3a
00000140: e1b2 403c 6404 e0bb eac8 3b3b 2fc9 9d3c
00000150: 98ae 193c da75 533c 23f4 c83c 18f1 6d3b
00000160: d1d8 0dbd 6b0a 3f3c f8d4 0fbc 864e ccbc
00000170: 9c66 4abc a606 a6bc 1e5f c6bc b260 d9bb
00000180: f9e9 8abb d252 85bc f5fc 68bc 69aa 33bc
00000190: 952d d7bb 9eef ebbb ed0e 58bc ab1a a8bb
000001a0: a735 943b bf58 953c 3ccd b53c 90b0 413c
000001b0: ad92 b13b a777 39bb 6651 333c 90cd f53a
000001c0: 4492 80ba 3e43 a6bb 5184 93bb 8016 d1bb
000001d0: 085f 12bc 7eef 4cbc 6ff6 babb a87b 33bb
000001e0: c4a1 40bb 2ef2 07ba 74e0 e8bb d481 f73a
000001f0: 332f d33b 28d8 9a3c b447 8d3b 9e76 1a3b
00000200: 7896 c4bb b657 d63b 8053 5238 5c46 bc3b
00000210: 8d22 31bc 8b5d 883c 7044 a83c 8cb2 8e3c
00000220: a880 10bb 481a ef3a ce0c 783c 98d8 873a
00000230: 1856 a0bb 488f 24bb 7c98 8339 e1dc c8ba
00000240: 6e45 943c cef4 9c3b d0fa e5bb 9c16 873b
00000250: 0efa e83b 2e18 76bb b89f 0bbc 0ba7 ac3b
00000260: 75ec b43b a630 143b fe67 ed3b 48d8 933b
00000270: 24b3 c43c eb08 a53b 273f 4e3b 9c0e bcbb
00000280: 95a7 4f3c 0eef 103c 84ac 823b b6df 553b
00000290: c0ef 3e3b f297 9b3c 3a9b da3a 2c1c faba
000002a0: b8ba 383a d1ab 0fba 3e95 113b c27f a33b
000002b0: e019 e4b8 72aa aeb9 3dda 943b 035b 833b
000002c0: 2c4f 3cbb 1e73 293b 9d34 223b 6b44 cabb
000002d0: 2a94 6e3b 520b c2bb 949b b33b c697 0b3c
000002e0: 5ed6 013b b51f d23a 6031 793b 757f 2a3c
000002f0: a1f8 c53b fcfa 83b9 166c 503a 7c9a f43a
00000300: 2b04 a2ba 009e 503b 72fa a5bb 325f 01ba
00000310: 8d21 463c 0cf0 123b 90a4 233c 7e8f 493b
00000320: 8f29 893c c8f4 8d3b 495d 083b 6130 153c
00000330: c460 bb3b 9e7b e43b ee9d 6abb 0086 f83b
00000340: 33da 97ba e6ed fe39 34a2 813c c230 0a3c
00000350: c2a0 f8bb 11af b83b 13c5 e73b a9a1 d9ba
00000360: 7810 0bbb c573 8a3b ceb4 20ba f5ef 9dbb
00000370: a746 033b 92f8 2bbb 3f63 a4ba 3c82 533b
00000380: 6cdb 14bc edbf b4ba 1101 523b 48f8 4b3c
00000390: 9880 46ba d2a3 4a3a 6c50 173b b16e 9dbb
000003a0: 7bb4 383b 306a 88bb 2d9a 73bb 46d6 27bc
000003b0: 0e43 35bc 3834 63bc 7619 90bb f582 05bb
000003c0: 049c 8fba 24b2 f33a 61eb 9fba c060 f23b
000003d0: e4d6 943c 3c12 c6ba e4f0 1a3b 2653 a43b
000003e0: 42eb 23bc 3e36 60bc b014 80bc baef dcbc
000003f0: d847 c2bc 2903 35bb 5288 90bc 8c9e 7ebc

momentum_buffer f4 [128]
0.010135371 -0.00054709055 -0.01204592 -0.003640579 0.015421312 0.012485156 0.012227972 -0.017363956
-0.019040864 0.013482025 0.0037634138 0.003679133 -0.009280016 0.010719091 0.0017846299 0.0029767007
0.01199059 -0.009455187 -0.016105907 -0.0012504623 9.264058e-05 0.02555524 0.009282688 -0.009478034
0.00922053 0.0030316464 -0.026548281 0.004692302 -0.0054431944 -0.00031674933 0.013568379 0.0021306474
-0.008516604 -0.013821231 0.017041357 -0.014620391 -0.017809581 0.026561597 -0.015746096 0.017305773
0.0044039665 0.02020559 0.0036191884 0.028582651 0.042266455 -0.020309051 0.018470531 -0.022522883
-0.026727712 -0.004027508 -0.034798466 0.045221526 0.032207433 0.03465341 0.02217885 -0.022765275
-0.02668691 0.0211467 0.010554943 0.014412921 -0.014601878 -0.012207496 0.026008371 0.008220458
0.010996476 0.044769585 0.046701044 0.026320461 -0.0031777243 -0.0039520804 -0.011065281 0.014442692
0.0028144363 0.007233259 0.020584483 0.020526715 0.01574409 -0.01817403 -0.01945953 0.017988574
0.01928735 -0.028606744 -0.013253457 0.011484853 0.0355336 0.01375011 0.0013875051 0.032414347
-0.011947487 0.008822131 0.0064603593 0.00071696145 -0.022751624 -0.019193366 -0.02094755 0.016499387
0.02897294 0.015541886 0.035916373 -0.016190192 0.0038102162 -0.014902538 -0.037622243 0.00034615025
-0.0038990658 0.0012855236 -0.03083311 0.015847305 0.009107122 -0.011090329 0.007900666 0.015860844
0.0144298 0.04044661 -0.024836313 -0.00906999 0.008853953 -0.0072290585 0.011304669 -0.012567285
-0.0011705109 -0.068423316 0.024741337 0.011672167 0.0032310896 0.013611067 -0.010054549 -0.025549073
00000000: d40e 263c a06a 0fba 405c 45bc c896 6ebb
00000010: aca9 7c3c 8a8e 4c3c d557 483c db3e 8ebc
00000020: 96fb 9bbc b6e3 5c3c 9ba3 763b 9c1d 713b
00000030: 350b 18bc 209f 2f3c 3eea e93a c014 433b
00000040: 2e74 443c eee9 1abc 89f0 83bc 8de6 a3ba
00000050: 0848 c238 3959 d13c 6a16 183c c249 1bbc
00000060: b511 173c 96ae 463b c87b d9bc e2c1 993b
00000070: d35c b2bb 6011 a6b9 e84d 5e3c 55a2 0b3b
00000080: 3a89 0bbc 7272 62bc 519a 8b3c 5d8a 6fbc
00000090: 66e5 91bc b597 d93c f5fd 80bc d6c4 8d3c
000000a0: 264f 903b 3286 a53c e82f 6d3b 2a26 ea3c
000000b0: 971f 2d3d 2b5f a6bc 834f 973c e981 b8bc
000000c0: 13f4 dabc 30f9 83bb d688 0ebd 353a 393d
000000d0: f1eb 033d bcf0 0d3d 6bb0 b53c 3e7e babc
000000e0: 829e dabc d83b ad3c a4ee 2c3c 2c24 6c3c
000000f0: b73c 6fbc f301 48bc 820f d53c 1aaf 063c
00000100: 902a 343c 5060 373d 9849 3f3d 029e d73c
00000110: 5e41 50bb 7480 81bb 274b 35bc 0aa1 6c3c
00000120: 6872 383b f904 ed3b caa0 a83c a427 a83c
00000130: c0f9 803c b4e1 94bc 9869 9fbc c65c 933c
00000140: 8100 9e3c b158 eabc 0725 59bc f72a 3c3c
00000150: ae8b 113d 2448 613c f2dc b53a e8c4 043d
00000160: 64bf 43bc b38a 103c 6cb1 d33b 78f2 3b3a
00000170: 9d61 babc 683b 9dbc 329a abbc b929 873c
00000180: a958 ed3c 65a3 7e3c 0c1d 133d 4ba1 84bc
00000190: d2b4 793b c629 74bc c819 1abd 807b b539
000001a0: 7887 7fbb 047f a83a b895 fcbc 35d2 813c
000001b0: 0a36 153c 36b4 35bc cc71 013c 9aee 813c
000001c0: f86a 6c3c 58ab 253d 8675 cbbc 4c9a 14bc
000001d0: 2c10 113c bde1 ecbb 3837 393c 04e7 4dbc
000001e0: d46b 99ba 8621 8cbd 58ae ca3c 9e3c 3f3c
000001f0: b0c0 533b f400 5f3c d6bb 24bc 4a4c d1bc
